{
  "layers" : [
    {
      "pad_r" : 3,
      "fused_relu" : 1,
      "fused_tanh" : 0,
      "debug_info" : "input.3",
      "pad_fill_mode" : 0,
      "pad_b" : 3,
      "pad_l" : 3,
      "top" : "input.5",
      "blob_weights" : 3,
      "K" : 3,
      "blob_biases" : 1,
      "stride_x" : 2,
      "name" : "input.3",
      "has_batch_norm" : 0,
      "type" : "convolution",
      "n_groups" : 1,
      "pad_t" : 3,
      "stride_y" : 2,
      "has_biases" : 1,
      "C" : 64,
      "bottom" : "input",
      "weights" : {

      },
      "Nx" : 7,
      "pad_mode" : 0,
      "pad_value" : 0,
      "Ny" : 7,
      "n_parallel" : 1
    },
    {
      "pad_r" : 1,
      "debug_info" : "input.7",
      "pad_fill_mode" : 0,
      "pad_b" : 1,
      "pad_l" : 1,
      "size_x" : 3,
      "top" : "input.7",
      "top_shape_style" : 0,
      "stride_x" : 2,
      "avg_or_max" : 1,
      "average_count_exclude_padding" : 1,
      "type" : "pool",
      "name" : "input.7",
      "pad_t" : 1,
      "stride_y" : 2,
      "bottom" : "input.5",
      "weights" : {

      },
      "pad_mode" : 0,
      "size_y" : 3,
      "pad_value" : 0
    },
    {
      "pad_r" : 1,
      "fused_relu" : 1,
      "fused_tanh" : 0,
      "debug_info" : "input.11",
      "pad_fill_mode" : 0,
      "pad_b" : 1,
      "pad_l" : 1,
      "top" : "input.13",
      "blob_weights" : 7,
      "K" : 64,
      "blob_biases" : 5,
      "name" : "input.11",
      "has_batch_norm" : 0,
      "type" : "convolution",
      "n_groups" : 1,
      "pad_t" : 1,
      "has_biases" : 1,
      "C" : 64,
      "bottom" : "input.7",
      "weights" : {

      },
      "Nx" : 3,
      "pad_mode" : 0,
      "pad_value" : 0,
      "Ny" : 3,
      "n_parallel" : 1
    },
    {
      "pad_r" : 1,
      "fused_relu" : 0,
      "fused_tanh" : 0,
      "debug_info" : "residual.1",
      "pad_fill_mode" : 0,
      "pad_b" : 1,
      "pad_l" : 1,
      "top" : "residual.1",
      "blob_weights" : 11,
      "K" : 64,
      "blob_biases" : 9,
      "name" : "residual.1",
      "has_batch_norm" : 0,
      "type" : "convolution",
      "n_groups" : 1,
      "pad_t" : 1,
      "has_biases" : 1,
      "C" : 64,
      "bottom" : "input.13",
      "weights" : {

      },
      "Nx" : 3,
      "pad_mode" : 0,
      "pad_value" : 0,
      "Ny" : 3,
      "n_parallel" : 1
    },
    {
      "bottom" : "input.7,residual.1",
      "alpha" : 1,
      "operation" : 0,
      "weights" : {

      },
      "fused_relu" : 0,
      "debug_info" : "input.17",
      "top" : "input.17",
      "type" : "elementwise",
      "name" : "input.17",
      "beta" : 0
    },
    {
      "bottom" : "input.17",
      "weights" : {

      },
      "mode" : 0,
      "debug_info" : "input.19",
      "top" : "input.19",
      "type" : "activation",
      "name" : "input.19"
    },
    {
      "pad_r" : 1,
      "fused_relu" : 1,
      "fused_tanh" : 0,
      "debug_info" : "input.23",
      "pad_fill_mode" : 0,
      "pad_b" : 1,
      "pad_l" : 1,
      "top" : "input.25",
      "blob_weights" : 15,
      "K" : 64,
      "blob_biases" : 13,
      "name" : "input.23",
      "has_batch_norm" : 0,
      "type" : "convolution",
      "n_groups" : 1,
      "pad_t" : 1,
      "has_biases" : 1,
      "C" : 64,
      "bottom" : "input.19",
      "weights" : {

      },
      "Nx" : 3,
      "pad_mode" : 0,
      "pad_value" : 0,
      "Ny" : 3,
      "n_parallel" : 1
    },
    {
      "pad_r" : 1,
      "fused_relu" : 0,
      "fused_tanh" : 0,
      "debug_info" : "residual.3",
      "pad_fill_mode" : 0,
      "pad_b" : 1,
      "pad_l" : 1,
      "top" : "residual.3",
      "blob_weights" : 19,
      "K" : 64,
      "blob_biases" : 17,
      "name" : "residual.3",
      "has_batch_norm" : 0,
      "type" : "convolution",
      "n_groups" : 1,
      "pad_t" : 1,
      "has_biases" : 1,
      "C" : 64,
      "bottom" : "input.25",
      "weights" : {

      },
      "Nx" : 3,
      "pad_mode" : 0,
      "pad_value" : 0,
      "Ny" : 3,
      "n_parallel" : 1
    },
    {
      "bottom" : "input.19,residual.3",
      "alpha" : 1,
      "operation" : 0,
      "weights" : {

      },
      "fused_relu" : 0,
      "debug_info" : "input.29",
      "top" : "input.29",
      "type" : "elementwise",
      "name" : "input.29",
      "beta" : 0
    },
    {
      "bottom" : "input.29",
      "weights" : {

      },
      "mode" : 0,
      "debug_info" : "input.31",
      "top" : "input.31",
      "type" : "activation",
      "name" : "input.31"
    },
    {
      "pad_r" : 1,
      "fused_relu" : 1,
      "fused_tanh" : 0,
      "debug_info" : "input.35",
      "pad_fill_mode" : 0,
      "pad_b" : 1,
      "pad_l" : 1,
      "top" : "input.37",
      "blob_weights" : 23,
      "K" : 64,
      "blob_biases" : 21,
      "stride_x" : 2,
      "name" : "input.35",
      "has_batch_norm" : 0,
      "type" : "convolution",
      "n_groups" : 1,
      "pad_t" : 1,
      "stride_y" : 2,
      "has_biases" : 1,
      "C" : 128,
      "bottom" : "input.31",
      "weights" : {

      },
      "Nx" : 3,
      "pad_mode" : 0,
      "pad_value" : 0,
      "Ny" : 3,
      "n_parallel" : 1
    },
    {
      "pad_r" : 1,
      "fused_relu" : 0,
      "fused_tanh" : 0,
      "debug_info" : "residual.5",
      "pad_fill_mode" : 0,
      "pad_b" : 1,
      "pad_l" : 1,
      "top" : "residual.5",
      "blob_weights" : 27,
      "K" : 128,
      "blob_biases" : 25,
      "name" : "residual.5",
      "has_batch_norm" : 0,
      "type" : "convolution",
      "n_groups" : 1,
      "pad_t" : 1,
      "has_biases" : 1,
      "C" : 128,
      "bottom" : "input.37",
      "weights" : {

      },
      "Nx" : 3,
      "pad_mode" : 0,
      "pad_value" : 0,
      "Ny" : 3,
      "n_parallel" : 1
    },
    {
      "pad_r" : 0,
      "fused_relu" : 0,
      "fused_tanh" : 0,
      "debug_info" : "shortcut.1",
      "pad_fill_mode" : 0,
      "pad_b" : 0,
      "pad_l" : 0,
      "top" : "shortcut.1",
      "blob_weights" : 31,
      "K" : 64,
      "blob_biases" : 29,
      "stride_x" : 2,
      "name" : "shortcut.1",
      "has_batch_norm" : 0,
      "type" : "convolution",
      "n_groups" : 1,
      "pad_t" : 0,
      "stride_y" : 2,
      "has_biases" : 1,
      "C" : 128,
      "bottom" : "input.31",
      "weights" : {

      },
      "Nx" : 1,
      "pad_mode" : 0,
      "pad_value" : 0,
      "Ny" : 1,
      "n_parallel" : 1
    },
    {
      "bottom" : "shortcut.1,residual.5",
      "alpha" : 1,
      "operation" : 0,
      "weights" : {

      },
      "fused_relu" : 0,
      "debug_info" : "input.43",
      "top" : "input.43",
      "type" : "elementwise",
      "name" : "input.43",
      "beta" : 0
    },
    {
      "bottom" : "input.43",
      "weights" : {

      },
      "mode" : 0,
      "debug_info" : "input.45",
      "top" : "input.45",
      "type" : "activation",
      "name" : "input.45"
    },
    {
      "pad_r" : 1,
      "fused_relu" : 1,
      "fused_tanh" : 0,
      "debug_info" : "input.49",
      "pad_fill_mode" : 0,
      "pad_b" : 1,
      "pad_l" : 1,
      "top" : "input.51",
      "blob_weights" : 35,
      "K" : 128,
      "blob_biases" : 33,
      "name" : "input.49",
      "has_batch_norm" : 0,
      "type" : "convolution",
      "n_groups" : 1,
      "pad_t" : 1,
      "has_biases" : 1,
      "C" : 128,
      "bottom" : "input.45",
      "weights" : {

      },
      "Nx" : 3,
      "pad_mode" : 0,
      "pad_value" : 0,
      "Ny" : 3,
      "n_parallel" : 1
    },
    {
      "pad_r" : 1,
      "fused_relu" : 0,
      "fused_tanh" : 0,
      "debug_info" : "residual.7",
      "pad_fill_mode" : 0,
      "pad_b" : 1,
      "pad_l" : 1,
      "top" : "residual.7",
      "blob_weights" : 39,
      "K" : 128,
      "blob_biases" : 37,
      "name" : "residual.7",
      "has_batch_norm" : 0,
      "type" : "convolution",
      "n_groups" : 1,
      "pad_t" : 1,
      "has_biases" : 1,
      "C" : 128,
      "bottom" : "input.51",
      "weights" : {

      },
      "Nx" : 3,
      "pad_mode" : 0,
      "pad_value" : 0,
      "Ny" : 3,
      "n_parallel" : 1
    },
    {
      "bottom" : "input.45,residual.7",
      "alpha" : 1,
      "operation" : 0,
      "weights" : {

      },
      "fused_relu" : 0,
      "debug_info" : "input.55",
      "top" : "input.55",
      "type" : "elementwise",
      "name" : "input.55",
      "beta" : 0
    },
    {
      "bottom" : "input.55",
      "weights" : {

      },
      "mode" : 0,
      "debug_info" : "input.57",
      "top" : "input.57",
      "type" : "activation",
      "name" : "input.57"
    },
    {
      "pad_r" : 1,
      "fused_relu" : 1,
      "fused_tanh" : 0,
      "debug_info" : "input.61",
      "pad_fill_mode" : 0,
      "pad_b" : 1,
      "pad_l" : 1,
      "top" : "input.63",
      "blob_weights" : 43,
      "K" : 128,
      "blob_biases" : 41,
      "stride_x" : 2,
      "name" : "input.61",
      "has_batch_norm" : 0,
      "type" : "convolution",
      "n_groups" : 1,
      "pad_t" : 1,
      "stride_y" : 2,
      "has_biases" : 1,
      "C" : 256,
      "bottom" : "input.57",
      "weights" : {

      },
      "Nx" : 3,
      "pad_mode" : 0,
      "pad_value" : 0,
      "Ny" : 3,
      "n_parallel" : 1
    },
    {
      "pad_r" : 1,
      "fused_relu" : 0,
      "fused_tanh" : 0,
      "debug_info" : "residual.9",
      "pad_fill_mode" : 0,
      "pad_b" : 1,
      "pad_l" : 1,
      "top" : "residual.9",
      "blob_weights" : 47,
      "K" : 256,
      "blob_biases" : 45,
      "name" : "residual.9",
      "has_batch_norm" : 0,
      "type" : "convolution",
      "n_groups" : 1,
      "pad_t" : 1,
      "has_biases" : 1,
      "C" : 256,
      "bottom" : "input.63",
      "weights" : {

      },
      "Nx" : 3,
      "pad_mode" : 0,
      "pad_value" : 0,
      "Ny" : 3,
      "n_parallel" : 1
    },
    {
      "pad_r" : 0,
      "fused_relu" : 0,
      "fused_tanh" : 0,
      "debug_info" : "shortcut.3",
      "pad_fill_mode" : 0,
      "pad_b" : 0,
      "pad_l" : 0,
      "top" : "shortcut.3",
      "blob_weights" : 51,
      "K" : 128,
      "blob_biases" : 49,
      "stride_x" : 2,
      "name" : "shortcut.3",
      "has_batch_norm" : 0,
      "type" : "convolution",
      "n_groups" : 1,
      "pad_t" : 0,
      "stride_y" : 2,
      "has_biases" : 1,
      "C" : 256,
      "bottom" : "input.57",
      "weights" : {

      },
      "Nx" : 1,
      "pad_mode" : 0,
      "pad_value" : 0,
      "Ny" : 1,
      "n_parallel" : 1
    },
    {
      "bottom" : "shortcut.3,residual.9",
      "alpha" : 1,
      "operation" : 0,
      "weights" : {

      },
      "fused_relu" : 0,
      "debug_info" : "input.69",
      "top" : "input.69",
      "type" : "elementwise",
      "name" : "input.69",
      "beta" : 0
    },
    {
      "bottom" : "input.69",
      "weights" : {

      },
      "mode" : 0,
      "debug_info" : "input.71",
      "top" : "input.71",
      "type" : "activation",
      "name" : "input.71"
    },
    {
      "pad_r" : 1,
      "fused_relu" : 1,
      "fused_tanh" : 0,
      "debug_info" : "input.75",
      "pad_fill_mode" : 0,
      "pad_b" : 1,
      "pad_l" : 1,
      "top" : "input.77",
      "blob_weights" : 55,
      "K" : 256,
      "blob_biases" : 53,
      "name" : "input.75",
      "has_batch_norm" : 0,
      "type" : "convolution",
      "n_groups" : 1,
      "pad_t" : 1,
      "has_biases" : 1,
      "C" : 256,
      "bottom" : "input.71",
      "weights" : {

      },
      "Nx" : 3,
      "pad_mode" : 0,
      "pad_value" : 0,
      "Ny" : 3,
      "n_parallel" : 1
    },
    {
      "pad_r" : 1,
      "fused_relu" : 0,
      "fused_tanh" : 0,
      "debug_info" : "residual.11",
      "pad_fill_mode" : 0,
      "pad_b" : 1,
      "pad_l" : 1,
      "top" : "residual.11",
      "blob_weights" : 59,
      "K" : 256,
      "blob_biases" : 57,
      "name" : "residual.11",
      "has_batch_norm" : 0,
      "type" : "convolution",
      "n_groups" : 1,
      "pad_t" : 1,
      "has_biases" : 1,
      "C" : 256,
      "bottom" : "input.77",
      "weights" : {

      },
      "Nx" : 3,
      "pad_mode" : 0,
      "pad_value" : 0,
      "Ny" : 3,
      "n_parallel" : 1
    },
    {
      "bottom" : "input.71,residual.11",
      "alpha" : 1,
      "operation" : 0,
      "weights" : {

      },
      "fused_relu" : 0,
      "debug_info" : "input.81",
      "top" : "input.81",
      "type" : "elementwise",
      "name" : "input.81",
      "beta" : 0
    },
    {
      "bottom" : "input.81",
      "weights" : {

      },
      "mode" : 0,
      "debug_info" : "input.83",
      "top" : "input.83",
      "type" : "activation",
      "name" : "input.83"
    },
    {
      "pad_r" : 1,
      "fused_relu" : 1,
      "fused_tanh" : 0,
      "debug_info" : "input.87",
      "pad_fill_mode" : 0,
      "pad_b" : 1,
      "pad_l" : 1,
      "top" : "input.89",
      "blob_weights" : 63,
      "K" : 256,
      "blob_biases" : 61,
      "stride_x" : 2,
      "name" : "input.87",
      "has_batch_norm" : 0,
      "type" : "convolution",
      "n_groups" : 1,
      "pad_t" : 1,
      "stride_y" : 2,
      "has_biases" : 1,
      "C" : 512,
      "bottom" : "input.83",
      "weights" : {

      },
      "Nx" : 3,
      "pad_mode" : 0,
      "pad_value" : 0,
      "Ny" : 3,
      "n_parallel" : 1
    },
    {
      "pad_r" : 1,
      "fused_relu" : 0,
      "fused_tanh" : 0,
      "debug_info" : "residual.13",
      "pad_fill_mode" : 0,
      "pad_b" : 1,
      "pad_l" : 1,
      "top" : "residual.13",
      "blob_weights" : 67,
      "K" : 512,
      "blob_biases" : 65,
      "name" : "residual.13",
      "has_batch_norm" : 0,
      "type" : "convolution",
      "n_groups" : 1,
      "pad_t" : 1,
      "has_biases" : 1,
      "C" : 512,
      "bottom" : "input.89",
      "weights" : {

      },
      "Nx" : 3,
      "pad_mode" : 0,
      "pad_value" : 0,
      "Ny" : 3,
      "n_parallel" : 1
    },
    {
      "pad_r" : 0,
      "fused_relu" : 0,
      "fused_tanh" : 0,
      "debug_info" : "shortcut",
      "pad_fill_mode" : 0,
      "pad_b" : 0,
      "pad_l" : 0,
      "top" : "shortcut",
      "blob_weights" : 71,
      "K" : 256,
      "blob_biases" : 69,
      "stride_x" : 2,
      "name" : "shortcut",
      "has_batch_norm" : 0,
      "type" : "convolution",
      "n_groups" : 1,
      "pad_t" : 0,
      "stride_y" : 2,
      "has_biases" : 1,
      "C" : 512,
      "bottom" : "input.83",
      "weights" : {

      },
      "Nx" : 1,
      "pad_mode" : 0,
      "pad_value" : 0,
      "Ny" : 1,
      "n_parallel" : 1
    },
    {
      "bottom" : "shortcut,residual.13",
      "alpha" : 1,
      "operation" : 0,
      "weights" : {

      },
      "fused_relu" : 0,
      "debug_info" : "input.95",
      "top" : "input.95",
      "type" : "elementwise",
      "name" : "input.95",
      "beta" : 0
    },
    {
      "bottom" : "input.95",
      "weights" : {

      },
      "mode" : 0,
      "debug_info" : "input.97",
      "top" : "input.97",
      "type" : "activation",
      "name" : "input.97"
    },
    {
      "pad_r" : 1,
      "fused_relu" : 1,
      "fused_tanh" : 0,
      "debug_info" : "input.101",
      "pad_fill_mode" : 0,
      "pad_b" : 1,
      "pad_l" : 1,
      "top" : "input.103",
      "blob_weights" : 75,
      "K" : 512,
      "blob_biases" : 73,
      "name" : "input.101",
      "has_batch_norm" : 0,
      "type" : "convolution",
      "n_groups" : 1,
      "pad_t" : 1,
      "has_biases" : 1,
      "C" : 512,
      "bottom" : "input.97",
      "weights" : {

      },
      "Nx" : 3,
      "pad_mode" : 0,
      "pad_value" : 0,
      "Ny" : 3,
      "n_parallel" : 1
    },
    {
      "pad_r" : 1,
      "fused_relu" : 0,
      "fused_tanh" : 0,
      "debug_info" : "residual",
      "pad_fill_mode" : 0,
      "pad_b" : 1,
      "pad_l" : 1,
      "top" : "residual",
      "blob_weights" : 79,
      "K" : 512,
      "blob_biases" : 77,
      "name" : "residual",
      "has_batch_norm" : 0,
      "type" : "convolution",
      "n_groups" : 1,
      "pad_t" : 1,
      "has_biases" : 1,
      "C" : 512,
      "bottom" : "input.103",
      "weights" : {

      },
      "Nx" : 3,
      "pad_mode" : 0,
      "pad_value" : 0,
      "Ny" : 3,
      "n_parallel" : 1
    },
    {
      "bottom" : "input.97,residual",
      "alpha" : 1,
      "operation" : 0,
      "weights" : {

      },
      "fused_relu" : 0,
      "debug_info" : "input.107",
      "top" : "input.107",
      "type" : "elementwise",
      "name" : "input.107",
      "beta" : 0
    },
    {
      "bottom" : "input.107",
      "weights" : {

      },
      "mode" : 0,
      "debug_info" : "feat32",
      "top" : "feat32",
      "type" : "activation",
      "name" : "feat32"
    },
    {
      "pad_r" : 0,
      "debug_info" : "input.109",
      "pad_fill_mode" : 0,
      "pad_b" : 0,
      "pad_l" : 0,
      "size_x" : 16,
      "top" : "input.109",
      "top_shape_style" : 0,
      "stride_x" : 16,
      "avg_or_max" : 0,
      "average_count_exclude_padding" : 0,
      "type" : "pool",
      "name" : "input.109",
      "pad_t" : 0,
      "stride_y" : 16,
      "bottom" : "feat32",
      "weights" : {

      },
      "pad_mode" : 2,
      "size_y" : 16,
      "pad_value" : 0
    },
    {
      "pad_r" : 0,
      "fused_relu" : 1,
      "fused_tanh" : 0,
      "debug_info" : "input.113",
      "pad_fill_mode" : 0,
      "pad_b" : 0,
      "pad_l" : 0,
      "top" : "input.115",
      "blob_weights" : 83,
      "K" : 512,
      "blob_biases" : 81,
      "name" : "input.113",
      "has_batch_norm" : 0,
      "type" : "convolution",
      "n_groups" : 1,
      "pad_t" : 0,
      "has_biases" : 1,
      "C" : 128,
      "bottom" : "input.109",
      "weights" : {

      },
      "Nx" : 1,
      "pad_mode" : 0,
      "pad_value" : 0,
      "Ny" : 1,
      "n_parallel" : 1
    },
    {
      "top" : "avg_up",
      "use_fractional_scale_factors" : false,
      "weights" : {

      },
      "fractional_scaling_factor_y" : 1,
      "type" : "upsample",
      "scaling_factor_x" : 16,
      "mode" : 0,
      "align_corners" : 0,
      "bottom" : "input.115",
      "debug_info" : "avg_up",
      "fractional_scaling_factor_x" : 1,
      "is_legacy_mode" : 1,
      "name" : "avg_up",
      "scaling_factor_y" : 16
    },
    {
      "pad_r" : 1,
      "fused_relu" : 1,
      "fused_tanh" : 0,
      "debug_info" : "input.119",
      "pad_fill_mode" : 0,
      "pad_b" : 1,
      "pad_l" : 1,
      "top" : "feat.1",
      "blob_weights" : 87,
      "K" : 512,
      "blob_biases" : 85,
      "name" : "input.119",
      "has_batch_norm" : 0,
      "type" : "convolution",
      "n_groups" : 1,
      "pad_t" : 1,
      "has_biases" : 1,
      "C" : 128,
      "bottom" : "feat32",
      "weights" : {

      },
      "Nx" : 3,
      "pad_mode" : 0,
      "pad_value" : 0,
      "Ny" : 3,
      "n_parallel" : 1
    },
    {
      "pad_r" : 0,
      "debug_info" : "input.121",
      "pad_fill_mode" : 0,
      "pad_b" : 0,
      "pad_l" : 0,
      "size_x" : 16,
      "top" : "input.121",
      "top_shape_style" : 0,
      "stride_x" : 16,
      "avg_or_max" : 0,
      "average_count_exclude_padding" : 0,
      "type" : "pool",
      "name" : "input.121",
      "pad_t" : 0,
      "stride_y" : 16,
      "bottom" : "feat.1",
      "weights" : {

      },
      "pad_mode" : 2,
      "size_y" : 16,
      "pad_value" : 0
    },
    {
      "pad_r" : 0,
      "fused_relu" : 0,
      "fused_tanh" : 0,
      "debug_info" : "input.125",
      "pad_fill_mode" : 0,
      "pad_b" : 0,
      "pad_l" : 0,
      "top" : "input.125",
      "blob_weights" : 91,
      "K" : 128,
      "blob_biases" : 89,
      "name" : "input.125",
      "has_batch_norm" : 0,
      "type" : "convolution",
      "n_groups" : 1,
      "pad_t" : 0,
      "has_biases" : 1,
      "C" : 128,
      "bottom" : "input.121",
      "weights" : {

      },
      "Nx" : 1,
      "pad_mode" : 0,
      "pad_value" : 0,
      "Ny" : 1,
      "n_parallel" : 1
    },
    {
      "bottom" : "input.125",
      "weights" : {

      },
      "mode" : 3,
      "debug_info" : "atten.1",
      "top" : "atten.1",
      "type" : "activation",
      "name" : "atten.1"
    },
    {
      "bottom" : "feat.1,atten.1",
      "alpha" : 1,
      "operation" : 1,
      "weights" : {

      },
      "fused_relu" : 0,
      "debug_info" : "feat32_arm",
      "top" : "feat32_arm",
      "type" : "elementwise",
      "name" : "feat32_arm",
      "beta" : 0
    },
    {
      "bottom" : "feat32_arm,avg_up",
      "alpha" : 1,
      "operation" : 0,
      "weights" : {

      },
      "fused_relu" : 0,
      "debug_info" : "input.127",
      "top" : "input.127",
      "type" : "elementwise",
      "name" : "input.127",
      "beta" : 0
    },
    {
      "top" : "input.129",
      "use_fractional_scale_factors" : false,
      "weights" : {

      },
      "fractional_scaling_factor_y" : 1,
      "type" : "upsample",
      "scaling_factor_x" : 2,
      "mode" : 0,
      "align_corners" : 0,
      "bottom" : "input.127",
      "debug_info" : "input.129",
      "fractional_scaling_factor_x" : 1,
      "is_legacy_mode" : 1,
      "name" : "input.129",
      "scaling_factor_y" : 2
    },
    {
      "pad_r" : 1,
      "fused_relu" : 1,
      "fused_tanh" : 0,
      "debug_info" : "input.133",
      "pad_fill_mode" : 0,
      "pad_b" : 1,
      "pad_l" : 1,
      "top" : "feat32_up",
      "blob_weights" : 95,
      "K" : 128,
      "blob_biases" : 93,
      "name" : "input.133",
      "has_batch_norm" : 0,
      "type" : "convolution",
      "n_groups" : 1,
      "pad_t" : 1,
      "has_biases" : 1,
      "C" : 128,
      "bottom" : "input.129",
      "weights" : {

      },
      "Nx" : 3,
      "pad_mode" : 0,
      "pad_value" : 0,
      "Ny" : 3,
      "n_parallel" : 1
    },
    {
      "pad_r" : 1,
      "fused_relu" : 1,
      "fused_tanh" : 0,
      "debug_info" : "input.137",
      "pad_fill_mode" : 0,
      "pad_b" : 1,
      "pad_l" : 1,
      "top" : "feat.3",
      "blob_weights" : 99,
      "K" : 256,
      "blob_biases" : 97,
      "name" : "input.137",
      "has_batch_norm" : 0,
      "type" : "convolution",
      "n_groups" : 1,
      "pad_t" : 1,
      "has_biases" : 1,
      "C" : 128,
      "bottom" : "input.83",
      "weights" : {

      },
      "Nx" : 3,
      "pad_mode" : 0,
      "pad_value" : 0,
      "Ny" : 3,
      "n_parallel" : 1
    },
    {
      "pad_r" : 0,
      "debug_info" : "input.139",
      "pad_fill_mode" : 0,
      "pad_b" : 0,
      "pad_l" : 0,
      "size_x" : 32,
      "top" : "input.139",
      "top_shape_style" : 0,
      "stride_x" : 32,
      "avg_or_max" : 0,
      "average_count_exclude_padding" : 0,
      "type" : "pool",
      "name" : "input.139",
      "pad_t" : 0,
      "stride_y" : 32,
      "bottom" : "feat.3",
      "weights" : {

      },
      "pad_mode" : 2,
      "size_y" : 32,
      "pad_value" : 0
    },
    {
      "pad_r" : 0,
      "fused_relu" : 0,
      "fused_tanh" : 0,
      "debug_info" : "input.143",
      "pad_fill_mode" : 0,
      "pad_b" : 0,
      "pad_l" : 0,
      "top" : "input.143",
      "blob_weights" : 103,
      "K" : 128,
      "blob_biases" : 101,
      "name" : "input.143",
      "has_batch_norm" : 0,
      "type" : "convolution",
      "n_groups" : 1,
      "pad_t" : 0,
      "has_biases" : 1,
      "C" : 128,
      "bottom" : "input.139",
      "weights" : {

      },
      "Nx" : 1,
      "pad_mode" : 0,
      "pad_value" : 0,
      "Ny" : 1,
      "n_parallel" : 1
    },
    {
      "bottom" : "input.143",
      "weights" : {

      },
      "mode" : 3,
      "debug_info" : "atten.3",
      "top" : "atten.3",
      "type" : "activation",
      "name" : "atten.3"
    },
    {
      "bottom" : "feat.3,atten.3",
      "alpha" : 1,
      "operation" : 1,
      "weights" : {

      },
      "fused_relu" : 0,
      "debug_info" : "feat16_arm",
      "top" : "feat16_arm",
      "type" : "elementwise",
      "name" : "feat16_arm",
      "beta" : 0
    },
    {
      "bottom" : "feat16_arm,feat32_up",
      "alpha" : 1,
      "operation" : 0,
      "weights" : {

      },
      "fused_relu" : 0,
      "debug_info" : "input.145",
      "top" : "input.145",
      "type" : "elementwise",
      "name" : "input.145",
      "beta" : 0
    },
    {
      "top" : "input.147",
      "use_fractional_scale_factors" : false,
      "weights" : {

      },
      "fractional_scaling_factor_y" : 1,
      "type" : "upsample",
      "scaling_factor_x" : 2,
      "mode" : 0,
      "align_corners" : 0,
      "bottom" : "input.145",
      "debug_info" : "input.147",
      "fractional_scaling_factor_x" : 1,
      "is_legacy_mode" : 1,
      "name" : "input.147",
      "scaling_factor_y" : 2
    },
    {
      "pad_r" : 1,
      "fused_relu" : 1,
      "fused_tanh" : 0,
      "debug_info" : "input.151",
      "pad_fill_mode" : 0,
      "pad_b" : 1,
      "pad_l" : 1,
      "top" : "fcp",
      "blob_weights" : 107,
      "K" : 128,
      "blob_biases" : 105,
      "name" : "input.151",
      "has_batch_norm" : 0,
      "type" : "convolution",
      "n_groups" : 1,
      "pad_t" : 1,
      "has_biases" : 1,
      "C" : 128,
      "bottom" : "input.147",
      "weights" : {

      },
      "Nx" : 3,
      "pad_mode" : 0,
      "pad_value" : 0,
      "Ny" : 3,
      "n_parallel" : 1
    },
    {
      "weights" : {

      },
      "debug_info" : "input.153",
      "top" : "input.153",
      "type" : "concat",
      "name" : "input.153",
      "bottom" : "input.57,fcp"
    },
    {
      "pad_r" : 0,
      "fused_relu" : 1,
      "fused_tanh" : 0,
      "debug_info" : "input.157",
      "pad_fill_mode" : 0,
      "pad_b" : 0,
      "pad_l" : 0,
      "top" : "feat",
      "blob_weights" : 111,
      "K" : 256,
      "blob_biases" : 109,
      "name" : "input.157",
      "has_batch_norm" : 0,
      "type" : "convolution",
      "n_groups" : 1,
      "pad_t" : 0,
      "has_biases" : 1,
      "C" : 256,
      "bottom" : "input.153",
      "weights" : {

      },
      "Nx" : 1,
      "pad_mode" : 0,
      "pad_value" : 0,
      "Ny" : 1,
      "n_parallel" : 1
    },
    {
      "pad_r" : 0,
      "debug_info" : "input.159",
      "pad_fill_mode" : 0,
      "pad_b" : 0,
      "pad_l" : 0,
      "size_x" : 64,
      "top" : "input.159",
      "top_shape_style" : 0,
      "stride_x" : 64,
      "avg_or_max" : 0,
      "average_count_exclude_padding" : 0,
      "type" : "pool",
      "name" : "input.159",
      "pad_t" : 0,
      "stride_y" : 64,
      "bottom" : "feat",
      "weights" : {

      },
      "pad_mode" : 2,
      "size_y" : 64,
      "pad_value" : 0
    },
    {
      "pad_r" : 0,
      "fused_relu" : 1,
      "fused_tanh" : 0,
      "debug_info" : "input.161",
      "pad_fill_mode" : 0,
      "pad_b" : 0,
      "pad_l" : 0,
      "top" : "input.163",
      "blob_weights" : 113,
      "K" : 256,
      "name" : "input.161",
      "has_batch_norm" : 0,
      "type" : "convolution",
      "n_groups" : 1,
      "pad_t" : 0,
      "has_biases" : 0,
      "C" : 64,
      "bottom" : "input.159",
      "weights" : {

      },
      "Nx" : 1,
      "pad_mode" : 0,
      "pad_value" : 0,
      "Ny" : 1,
      "n_parallel" : 1
    },
    {
      "pad_r" : 0,
      "fused_relu" : 0,
      "fused_tanh" : 0,
      "debug_info" : "input.165",
      "pad_fill_mode" : 0,
      "pad_b" : 0,
      "pad_l" : 0,
      "top" : "input.165",
      "blob_weights" : 115,
      "K" : 64,
      "name" : "input.165",
      "has_batch_norm" : 0,
      "type" : "convolution",
      "n_groups" : 1,
      "pad_t" : 0,
      "has_biases" : 0,
      "C" : 256,
      "bottom" : "input.163",
      "weights" : {

      },
      "Nx" : 1,
      "pad_mode" : 0,
      "pad_value" : 0,
      "Ny" : 1,
      "n_parallel" : 1
    },
    {
      "bottom" : "input.165",
      "weights" : {

      },
      "mode" : 3,
      "debug_info" : "atten",
      "top" : "atten",
      "type" : "activation",
      "name" : "atten"
    },
    {
      "bottom" : "feat,atten",
      "alpha" : 1,
      "operation" : 1,
      "weights" : {

      },
      "fused_relu" : 0,
      "debug_info" : "feat_atten",
      "top" : "feat_atten",
      "type" : "elementwise",
      "name" : "feat_atten",
      "beta" : 0
    },
    {
      "bottom" : "feat_atten,feat",
      "alpha" : 1,
      "operation" : 0,
      "weights" : {

      },
      "fused_relu" : 0,
      "debug_info" : "input.167",
      "top" : "input.167",
      "type" : "elementwise",
      "name" : "input.167",
      "beta" : 0
    },
    {
      "pad_r" : 1,
      "fused_relu" : 1,
      "fused_tanh" : 0,
      "debug_info" : "input.171",
      "pad_fill_mode" : 0,
      "pad_b" : 1,
      "pad_l" : 1,
      "top" : "input.173",
      "blob_weights" : 119,
      "K" : 256,
      "blob_biases" : 117,
      "name" : "input.171",
      "has_batch_norm" : 0,
      "type" : "convolution",
      "n_groups" : 1,
      "pad_t" : 1,
      "has_biases" : 1,
      "C" : 256,
      "bottom" : "input.167",
      "weights" : {

      },
      "Nx" : 3,
      "pad_mode" : 0,
      "pad_value" : 0,
      "Ny" : 3,
      "n_parallel" : 1
    },
    {
      "pad_r" : 0,
      "fused_relu" : 0,
      "fused_tanh" : 0,
      "debug_info" : "input.187",
      "pad_fill_mode" : 0,
      "pad_b" : 0,
      "pad_l" : 0,
      "top" : "input.187",
      "blob_weights" : 121,
      "K" : 256,
      "name" : "input.187",
      "has_batch_norm" : 0,
      "type" : "convolution",
      "n_groups" : 1,
      "pad_t" : 0,
      "has_biases" : 0,
      "C" : 19,
      "bottom" : "input.173",
      "weights" : {

      },
      "Nx" : 1,
      "pad_mode" : 0,
      "pad_value" : 0,
      "Ny" : 1,
      "n_parallel" : 1
    },
    {
      "pad_r" : 1,
      "fused_relu" : 1,
      "fused_tanh" : 0,
      "debug_info" : "input.177",
      "pad_fill_mode" : 0,
      "pad_b" : 1,
      "pad_l" : 1,
      "top" : "input.179",
      "blob_weights" : 125,
      "K" : 128,
      "blob_biases" : 123,
      "name" : "input.177",
      "has_batch_norm" : 0,
      "type" : "convolution",
      "n_groups" : 1,
      "pad_t" : 1,
      "has_biases" : 1,
      "C" : 64,
      "bottom" : "fcp",
      "weights" : {

      },
      "Nx" : 3,
      "pad_mode" : 0,
      "pad_value" : 0,
      "Ny" : 3,
      "n_parallel" : 1
    },
    {
      "pad_r" : 0,
      "fused_relu" : 0,
      "fused_tanh" : 0,
      "debug_info" : "input.189",
      "pad_fill_mode" : 0,
      "pad_b" : 0,
      "pad_l" : 0,
      "top" : "input.189",
      "blob_weights" : 127,
      "K" : 64,
      "name" : "input.189",
      "has_batch_norm" : 0,
      "type" : "convolution",
      "n_groups" : 1,
      "pad_t" : 0,
      "has_biases" : 0,
      "C" : 19,
      "bottom" : "input.179",
      "weights" : {

      },
      "Nx" : 1,
      "pad_mode" : 0,
      "pad_value" : 0,
      "Ny" : 1,
      "n_parallel" : 1
    },
    {
      "pad_r" : 1,
      "fused_relu" : 1,
      "fused_tanh" : 0,
      "debug_info" : "input.183",
      "pad_fill_mode" : 0,
      "pad_b" : 1,
      "pad_l" : 1,
      "top" : "input.185",
      "blob_weights" : 131,
      "K" : 128,
      "blob_biases" : 129,
      "name" : "input.183",
      "has_batch_norm" : 0,
      "type" : "convolution",
      "n_groups" : 1,
      "pad_t" : 1,
      "has_biases" : 1,
      "C" : 64,
      "bottom" : "feat32_up",
      "weights" : {

      },
      "Nx" : 3,
      "pad_mode" : 0,
      "pad_value" : 0,
      "Ny" : 3,
      "n_parallel" : 1
    },
    {
      "pad_r" : 0,
      "fused_relu" : 0,
      "fused_tanh" : 0,
      "debug_info" : "input_1",
      "pad_fill_mode" : 0,
      "pad_b" : 0,
      "pad_l" : 0,
      "top" : "input_1",
      "blob_weights" : 133,
      "K" : 64,
      "name" : "input_1",
      "has_batch_norm" : 0,
      "type" : "convolution",
      "n_groups" : 1,
      "pad_t" : 0,
      "has_biases" : 0,
      "C" : 19,
      "bottom" : "input.185",
      "weights" : {

      },
      "Nx" : 1,
      "pad_mode" : 0,
      "pad_value" : 0,
      "Ny" : 1,
      "n_parallel" : 1
    },
    {
      "top" : "var_629",
      "use_fractional_scale_factors" : false,
      "weights" : {

      },
      "fractional_scaling_factor_y" : 1,
      "type" : "upsample",
      "scaling_factor_x" : 8,
      "mode" : 1,
      "align_corners" : 1,
      "bottom" : "input.187",
      "debug_info" : "629",
      "fractional_scaling_factor_x" : 1,
      "is_legacy_mode" : 0,
      "name" : "629",
      "scaling_factor_y" : 8
    },
    {
      "top" : "var_633",
      "use_fractional_scale_factors" : false,
      "weights" : {

      },
      "fractional_scaling_factor_y" : 1,
      "type" : "upsample",
      "scaling_factor_x" : 8,
      "mode" : 1,
      "align_corners" : 1,
      "bottom" : "input.189",
      "debug_info" : "633",
      "fractional_scaling_factor_x" : 1,
      "is_legacy_mode" : 0,
      "name" : "633",
      "scaling_factor_y" : 8
    },
    {
      "top" : "var_637",
      "use_fractional_scale_factors" : false,
      "weights" : {

      },
      "fractional_scaling_factor_y" : 1,
      "type" : "upsample",
      "scaling_factor_x" : 16,
      "mode" : 1,
      "align_corners" : 1,
      "bottom" : "input_1",
      "debug_info" : "637",
      "fractional_scaling_factor_x" : 1,
      "is_legacy_mode" : 0,
      "name" : "637",
      "scaling_factor_y" : 16
    },
    {
      "size_of_axes" : 0,
      "bottom" : "var_629",
      "weights" : {

      },
      "nd_axis" : 0,
      "debug_info" : "squeeze",
      "version" : 1,
      "top" : "squeeze_out",
      "type" : "squeeze",
      "name" : "squeeze",
      "squeeze_all" : true
    },
    {
      "bottom" : "squeeze_out",
      "single_axis_topk" : true,
      "axis" : 0,
      "weights" : {

      },
      "debug_info" : "argmax",
      "num_k" : 1,
      "top" : "94_argmax_out_value,argmax_out",
      "type" : "topk",
      "name" : "argmax",
      "attributes" : {
        "is_output" : 1
      }
    }
  ],
  "transform_params" : {
    "input" : {
      "bias_a" : 0,
      "bias_g" : -2.0357143878936768,
      "bias_r" : -1.804444432258606,
      "bias_b" : -2.1179039478302002,
      "center_mean" : 0,
      "is_network_bgr" : 0,
      "scale" : 0.017352074384689331
    }
  },
  "storage" : "model.espresso.weights",
  "metadata_in_weights" : [

  ],
  "properties" : {

  },
  "analyses" : {

  },
  "format_version" : 200
}